heart_disease.tflite (tflite, 3796 bytes, 5 tensors)

arith.constant f4 [1, 8]
0	0xbe286956	-0.16446432
1	0xbe15cc5c	-0.14628738
2	0xbe4b35d9	-0.1984476
3	0x3deef07a	0.11666961
4	0x3d8863ae	0.066596374
5	0x3d454ed4	0.04817088
6	0xbe0fe24c	-0.14051169
7	0xbde86c6f	-0.11348807

arith.constant1 f4 [8, 16]
0	0xbdd20ff2	-0.102569476
1	0xc046cc92	-3.106236
2	0xbf86362a	-1.048528
3	0x3ecf42b4	0.40480578
4	0x3f3cd529	0.73762757
5	0x3f1b378d	0.6063164
6	0xbd9d2dd0	-0.07674754
7	0x3e1c6156	0.15271506
8	0x3ced7cb6	0.02899013
9	0x3f1756eb	0.59117
10	0x3e0417ee	0.12899753
11	0x3eab1faa	0.33422595
12	0x3dca7b61	0.09886814
13	0xbe8dd4ee	-0.27701515
14	0x3f01bc05	0.5067752
15	0x3efef54f	0.4979653
16	0xbe9b941c	-0.30386436
17	0x3fbabdba	1.458915
18	0x3efb1f46	0.49047297
19	0xbfb8bf2c	-1.4433341
20	0x3f0d61e5	0.552275
21	0x3f8c5f7b	1.0966638
22	0xbf4d4931	-0.80189806
23	0x3fac96b2	1.3483489
24	0x3f119753	0.5687153
25	0xbdbf5104	-0.093416244
26	0x3ea50e13	0.322373
27	0x3dfbb174	0.12289706
28	0xbf32800b	-0.6972663
29	0xbf0f3d48	-0.5595288
30	0xbea3e8f0	-0.32013655
31	0x3e9b1e97	0.30296776
32	0x3ea2bab7	0.31783077
33	0xc00007b4	-2.0004702
34	0x3eb07edd	0.3447179
35	0x3de4241f	0.11139702
36	0xbd7d9440	-0.06190896
37	0x3fb247ed	1.39282
38	0xbe8004cc	-0.2500366
39	0xbecbc2d9	-0.39797094
40	0xbdfb23d3	-0.12262692
41	0x3cf82a9e	0.030293759
42	0xbfdc55ba	-1.7213662
43	0xbe805c5a	-0.2507046
44	0x3d940686	0.07227807
45	0xbecaa0a8	-0.39575696
46	0x3eb2da07	0.34931967
47	0x3e8b73fc	0.27236927
48	0xbf3c62de	-0.7358836
49	0x3f9f2ab0	1.2434902
50	0x3f630e53	0.8869373
51	0xbe2e41d5	-0.170173
52	0xbdb44d23	-0.08803775
53	0xc08d8fbc	-4.4237957
54	0x3ec354a2	0.38150507
55	0xc0352bef	-2.8308065
56	0x3df9a478	0.12189573
57	0xbf9352af	-1.1509608
58	0xc05027d6	-3.2524314
59	0xbcd2f216	-0.025750201
60	0xc03e67a5	-2.975076
61	0x3dd8e378	0.10590261
62	0xbf3769ae	-0.7164563
63	0x3f676f97	0.9040465
64	0xc05562de	-3.3341594
65	0xbebe6b6a	-0.37191325
66	0xc0f42b7e	-7.630309
67	0xbee5983f	-0.44842717
68	0xbf6a8145	-0.916035
69	0xbf41028e	-0.75394523
70	0x3f152229	0.5825525
71	0xbb978e4e	-0.0046251183
72	0xbf9d3449	-1.2281581
73	0xbf16163b	-0.5862767
74	0x3ef7021f	0.48243806
75	0xc00468cc	-2.0688963
76	0xbee1f71c	-0.44133842
77	0x3e874117	0.26416847
78	0x3ec018da	0.3751896
79	0xbf310e57	-0.69162506
80	0xbf787e2b	-0.9706752
81	0xbecc04d7	-0.39847443
82	0x3f2f0d63	0.683798
83	0xbf5ba810	-0.8580332
84	0xbf52382e	-0.82116973
85	0xbedb4445	-0.42825523
86	0x3cedcaa3	0.029027289
87	0xbf8a9c93	-1.0829033
88	0xbe9c1f36	-0.30492562
89	0x3dbd9566	0.09257011
90	0xbe858ec7	-0.26085493
91	0x3d12ee21	0.03587163
92	0xbdaee8cd	-0.08540497
93	0xbd4136f2	-0.04717154
94	0xbf6078d0	-0.87684345
95	0xbebe84a5	-0.37210575
96	0x3e99a682	0.30009848
97	0x3f2c2e3a	0.67258036
98	0x3f71cfec	0.9445789
99	0x3c26cc42	0.010180535
100	0xbe69bc6e	-0.22825786
101	0x3fac8a9d	1.3479801
102	0xbf01c704	-0.506943
103	0x3ea7f0e0	0.3280096
104	0xbf2563a9	-0.64605194
105	0x3e5fa386	0.21839723
106	0xbeafa991	-0.34309056
107	0x3e9f3d33	0.3110138
108	0x3ef0b287	0.47011206
109	0xbf303e77	-0.68845314
110	0x3e827afa	0.2548445
111	0x3f4edc35	0.8080476
112	0xbdd6acfd	-0.10482214
113	0x3f084baf	0.53240484
114	0x3f21be52	0.6318103
115	0x3ee5edea	0.44908077
116	0x3ed5792f	0.41694018
117	0x3f8cc91c	1.0998874
118	0xbecdb79b	-0.40179142
119	0xbe2304fc	-0.1591987
120	0xc03364c7	-2.803026
121	0xbd828e21	-0.06374765
122	0x3e8f8277	0.28029224
123	0x3ee66807	0.45001242
124	0x3e5418bb	0.20712559
125	0x3e520f56	0.20513663
126	0xbcb49f73	-0.022048688
127	0x3e8afbcf	0.2714524

sequential_1/dense_1_2/BiasAdd/ReadVariableOp f4 [8]
0	0x3fd042b2	1.6270354
1	0xbf9b5332	-1.2134764
2	0x3fe61fef	1.7978495
3	0x3f0ffdf0	0.5624685
4	0xbf167c82	-0.58783734
5	0xbf55d05c	-0.83521056
6	0x3def9b94	0.11699596
7	0xbdabd884	-0.083909065

sequential_1/dense_1/BiasAdd/ReadVariableOp f4 [16]
0	0x3c2b7808	0.010465629
1	0xbfa86b76	-1.3157794
2	0xbeed3b49	-0.46334293
3	0x3feeeb64	1.8665586
4	0x3fdeda9b	1.7410463
5	0xbff085f1	-1.8790876
6	0xbd2fbbb5	-0.04290362
7	0xbee40458	-0.44534564
8	0xc02a6403	-2.6623542
9	0xbf6ded0f	-0.9293985
10	0xc01ca806	-2.4477553
11	0x3f7db7ff	0.9910888
12	0xbeef94be	-0.4679317
13	0x3ca9f290	0.020745546
14	0x3f1baec8	0.6081357
15	0x3fc9f3ae	1.577749

sequential_1/dense_1/MatMul f4 [16, 17]
0	0xbf985e73	-1.1903824
1	0x3f0effb4	0.5585892
2	0x3edf0c8d	0.43564263
3	0xbfc3b8e3	-1.5290798
4	0x3e8ba9b8	0.27277923
5	0x3cc59c52	0.02412239
6	0x3c897104	0.016777523
7	0x3f0b85c7	0.54501003
8	0xbe847a14	-0.25874388
9	0xbfea261f	-1.8292884
10	0xbf0fc0fc	-0.56153846
11	0xbe9258e0	-0.2858343
12	0xbfdb713a	-1.7143929
13	0x3dd7c963	0.10536458
14	0xbded2761	-0.115797766
15	0xbeb48f90	-0.3526578
16	0xbd4ea29f	-0.050448056
17	0xbe1a30ff	-0.15057753
18	0x3dd79662	0.1052673
19	0x3dfe1e09	0.124080725
20	0xbcb7595e	-0.02238148
21	0xbdff9602	-0.124797836
22	0xbd38d002	-0.045120247
23	0xbdc33e22	-0.09533335
24	0xbe1131ee	-0.14179203
25	0xbea6ce66	-0.32579345
26	0x3dbf206e	0.09332357
27	0xbd718fb1	-0.058974925
28	0xbd558964	-0.05213298
29	0xc0abaf3c	-5.365141
30	0x3d865f1c	0.065611094
31	0x3db63263	0.08896329
32	0x3d628105	0.055298824
33	0xbe266d2d	-0.16252585
34	0x3e6bbe8a	0.23021904
35	0xbf10f499	-0.56623226
36	0xbe09d6d6	-0.1346086
37	0xbf090b4f	-0.5353288
38	0xc00043f9	-2.0041487
39	0xbee5c994	-0.44880354
40	0xbf429910	-0.76014805
41	0xbf5fd15e	-0.87428844
42	0xbfb60f4e	-1.4223421
43	0xbebe9a4f	-0.37227103
44	0xbe04ba82	-0.12961772
45	0x3de3b2b5	0.1111807
46	0xbf80c762	-1.0060847
47	0xbbffb098	-0.007803034
48	0x3d18940c	0.037250564
49	0xbe9ff139	-0.31238726
50	0xbda089e7	-0.07838803
51	0x3f43a1fe	0.76419055
52	0xbcf4c150	-0.029877335
53	0xc002071b	-2.0316837
54	0xbe9721dc	-0.2951802
55	0xbf5c6e02	-0.8610536
56	0xbe66c607	-0.22536479
57	0xbeb1765f	-0.34660622
58	0xbf869dcf	-1.0516909
59	0xbf6ab37a	-0.9168011
60	0x3dd26099	0.10272331
61	0x3e2bd7e8	0.1678158
62	0x3d1406c1	0.036139254
63	0xbee6bb65	-0.45064846
64	0x3e706cbc	0.23478979
65	0xbe89f91a	-0.26947862
66	0xc00b4ffb	-2.1767566
67	0x3d8f2a76	0.06990521
68	0x3e1bdc90	0.15220857
69	0x3e444b08	0.19169247
70	0xbe1043c7	-0.14088355
71	0xbeb1f206	-0.34754962
72	0x3f250b41	0.644703
73	0xbeb189dd	-0.34675494
74	0xbcc428ff	-0.02394533
75	0xbf6bb4fa	-0.92073023
76	0xbfabac4e	-1.3411958
77	0x3efae77c	0.49004734
78	0xbf3bed84	-0.73409295
79	0x3d827651	0.06370223
80	0xbfe17403	-1.7613529
81	0x3e03d1c0	0.12872982
82	0xbc76a08a	-0.015052924
83	0xbdadad30	-0.084802985
84	0x3e181d53	0.14854936
85	0xbda95a35	-0.08269159
86	0xbcbf74de	-0.023371156
87	0x3d619995	0.055078108
88	0xbdc83fbb	-0.097777806
89	0x3dbd1d05	0.09234051
90	0xbcf40ebe	-0.029792186
91	0xbdc39734	-0.09550324
92	0xbe3bdf5c	-0.18346924
93	0xbf078926	-0.52943647
94	0x3d84e0a1	0.06488157
95	0xbddd2250	-0.1079756
96	0xbda20299	-0.07910652
97	0x40696584	3.646821
98	0x3daea029	0.08526642
99	0xbd181467	-0.037128832
100	0x3b88f881	0.0041800146
101	0xbb8569a3	-0.004071431
102	0x3eb09f13	0.34496364
103	0x3ec6f570	0.3885913
104	0xbc08699b	-0.00832596
105	0x3e069147	0.13141356
106	0x3f0f1dac	0.5590465
107	0xbec29206	-0.38002032
108	0x3d03d66f	0.03218692
109	0x3fa6bc08	1.3026133
110	0x3ff9cce8	1.9515657
111	0x3f6d1e16	0.9262403
112	0x3f3a13f1	0.7268668
113	0xbda43ec6	-0.080197856
114	0x3e9e6b3c	0.30941188
115	0x3ea2bf04	0.31786358
116	0x3e5c9208	0.21540082
117	0x3f4bb60f	0.79574674
118	0x3df7e0a0	0.12103391
119	0x3e13bab5	0.14426692
120	0xbf37d6cc	-0.7181213
121	0xbe46789b	-0.19381945
122	0xbeaf22e8	-0.3420632
123	0xbfd17806	-1.6364753
124	0xbd8d2967	-0.068926625
125	0xbfed8a7d	-1.8557888
126	0xbf0a9931	-0.5414
127	0xbf03fd1e	-0.515581
128	0xbf0c0757	-0.546987
129	0x3f261573	0.6487648
130	0x3e3e6326	0.1859251
131	0x3fdb9f6c	1.7158027
132	0xbe9b9757	-0.303889
133	0x3dae5eec	0.08514199
134	0x3eb304d7	0.3496463
135	0x3e136b3c	0.14396375
136	0xbe8d57de	-0.276061
137	0xbdc59ab3	-0.09648647
138	0xbfbc6437	-1.4718083
139	0xbd83cfba	-0.06436105
140	0x3ecf4f83	0.4049035
141	0xbf659a2b	-0.89688367
142	0xbeed05d4	-0.4629351
143	0xbf8a896d	-1.0823189
144	0xbfff8b12	-1.9964316
145	0xbc136980	-0.008997321
146	0xbf82bdf5	-1.021422
147	0x3ec8632a	0.39138156
148	0x3f4adc20	0.79242134
149	0x3f264ff0	0.64965725
150	0xbe194065	-0.14965971
151	0x3fb7f5a8	1.4371843
152	0x3d951a9a	0.072804645
153	0x3d975cc2	0.07390739
154	0xbefb88bc	-0.49127758
155	0x3ece9c0e	0.40353435
156	0xc00c24ce	-2.1897464
157	0x3eb1a2e3	0.34694585
158	0x3e740074	0.23828298
159	0x3eba2458	0.36355853
160	0xbe875fcf	-0.26440284
161	0xbff1ab7c	-1.8880458
162	0xbf0cf058	-0.55054235
163	0x3e44be1f	0.1921315
164	0xbf032b45	-0.512379
165	0xc05b29a1	-3.4244158
166	0xbdc3e18b	-0.09564503
167	0x3f0000d2	0.5000125
168	0xbeb3073c	-0.34966457
169	0x3f15c0cb	0.58497304
170	0x3eb4ad49	0.35288456
171	0xbd8a2cb5	-0.067468084
172	0xbf12fb78	-0.5741496
173	0xbfcf6b20	-1.6204567
174	0xbe8101f6	-0.2519681
175	0x3eba66de	0.36406606
176	0x3dcb1c65	0.09917525
177	0x3b63a091	0.0034733156
178	0x3d8e1d41	0.069391735
179	0xbf698b19	-0.9122787
180	0xbe0371a6	-0.12836322
181	0xbe0deb6a	-0.13859335
182	0xc04a39c1	-3.159775
183	0x3d5f66b1	0.054541294
184	0xbe3984e8	-0.18117106
185	0x3f0aa482	0.5415727
186	0x3db49695	0.08817784
187	0xbf0cf719	-0.5506454
188	0xbed1b0ed	-0.40955296
189	0x3f030ff2	0.51196206
190	0xbfe18625	-1.7619063
191	0xbde1faf6	-0.11034195
192	0xbe55a8ee	-0.20865223
193	0xbe98479f	-0.29742143
194	0xbf38b1a1	-0.7214604
195	0xbfd2d53c	-1.6471324
196	0xbe97bd87	-0.29636785
197	0x3f0cb054	0.54956555
198	0x3d4fd9fb	0.05074499
199	0xbf895671	-1.0729505
200	0xbe6269ba	-0.22110644
201	0xbfbe2505	-1.4855047
202	0x3d699582	0.057027347
203	0xbcbd4bec	-0.023107491
204	0x3e6d7041	0.23187353
205	0x3d8b319f	0.06796574
206	0x3fbee06d	1.4912239
207	0xbfa43f07	-1.2831734
208	0xbe902ebb	-0.28160653
209	0x3eac7088	0.33679605
210	0xbf8c5b0c	-1.0965285
211	0xbe924b24	-0.28572953
212	0xbfefa1ce	-1.8721254
213	0x3e2edf62	0.17077401
214	0x3eb51444	0.35367024
215	0x3f7015b0	0.9378309
216	0x3eb5e881	0.3552895
217	0x3e358dcc	0.17729872
218	0x3f72d386	0.9485401
219	0xbe32e587	-0.1747037
220	0x3e1edad0	0.15513158
221	0xbd255e40	-0.040373087
222	0x3e7129ea	0.23551145
223	0x3e82cf9b	0.25549015
224	0x3ece1784	0.40252316
225	0x3e8ba9b0	0.272779
226	0x3ee4f4a1	0.44717887
227	0x3f48fc93	0.785104
228	0xbf2d50f1	-0.6770163
229	0xbfff8b5b	-1.9964403
230	0xbf9ab861	-1.2087518
231	0x3e8b1eb7	0.2717187
232	0xbeff61d9	-0.4987934
233	0x3ec7ba11	0.39009145
234	0xbef9d6f3	-0.48796806
235	0x3e936c40	0.28793526
236	0xbd8f87bf	-0.070083134
237	0x3e888459	0.26663473
238	0xbe67c9e2	-0.22635606
239	0xbf3f5025	-0.74731666
240	0x3e53a8c8	0.20669854
241	0xbd9a7d07	-0.07543378
242	0x3ec57f28	0.38573575
243	0x3eaa25a6	0.33231848
244	0x3ea1e4f1	0.3161998
245	0x3eca0f83	0.3946496
246	0xbeddfd8f	-0.43357512
247	0xbce39bb3	-0.027784204
248	0x3e80e54f	0.2517495
249	0xbea7ce79	-0.32774714
250	0xc085dfc9	-4.1835675
251	0xbd68c4aa	-0.05682818
252	0xbdb21fd9	-0.08697481
253	0x3d52dfe3	0.051483046
254	0xbf2690bc	-0.650646
255	0xbe8e7899	-0.27826384
